server/disease_gnn_model.pth (torch, 13740 bytes, 6 tensors)

conv1.bias f4 [64]
00000000: 0000 0000 0000 0000 0000 0000 0000 0000
00000010: 0000 0000 0000 0000 0000 0000 0000 0000
00000020: 0000 0000 0000 0000 0000 0000 0000 0000
00000030: 0000 0000 0000 0000 0000 0000 0000 0000
00000040: 0000 0000 0000 0000 0000 0000 0000 0000
00000050: 0000 0000 0000 0000 0000 0000 0000 0000
00000060: 0000 0000 0000 0000 0000 0000 0000 0000
00000070: 0000 0000 0000 0000 0000 0000 0000 0000
00000080: 0000 0000 0000 0000 0000 0000 0000 0000
00000090: 0000 0000 0000 0000 0000 0000 0000 0000
000000a0: 0000 0000 0000 0000 0000 0000 0000 0000
000000b0: 0000 0000 0000 0000 0000 0000 0000 0000
000000c0: 0000 0000 0000 0000 0000 0000 0000 0000
000000d0: 0000 0000 0000 0000 0000 0000 0000 0000
000000e0: 0000 0000 0000 0000 0000 0000 0000 0000
000000f0: 0000 0000 0000 0000 0000 0000 0000 0000
0.0 0.0 0.0 0.0 0.0 0.0 0.0 0.0
0.0 0.0 0.0 0.0 0.0 0.0 0.0 0.0
0.0 0.0 0.0 0.0 0.0 0.0 0.0 0.0
0.0 0.0 0.0 0.0 0.0 0.0 0.0 0.0
0.0 0.0 0.0 0.0 0.0 0.0 0.0 0.0
0.0 0.0 0.0 0.0 0.0 0.0 0.0 0.0
0.0 0.0 0.0 0.0 0.0 0.0 0.0 0.0
0.0 0.0 0.0 0.0 0.0 0.0 0.0 0.0

conv1.lin.weight f4 [64, 1]
00000000: 406c 3b3e a1e4 2abe 98f3 9e3d 43bc 11be
00000010: f9a4 62be 0723 9f3d b5c8 7bbd 2deb 91bd
00000020: 58f4 58be d6f7 323e ad9e d83d 1e2d 33be
00000030: 0a80 a4bd 33aa b1bc 5830 993e 3684 ecbd
00000040: c44f 603d f42f 833e 9a23 683e 2572 363e
00000050: eaf2 97be 16da 843e a543 973d a387 16be
00000060: be54 8a3e bbc1 28be bb60 31be 5497 9e3d
00000070: 39eb 293e d52b 57be 3e7c f2bd ce81 ed3d
00000080: 9386 7e3e 605f 52bd e157 9abe 02cb 6ebe
00000090: feab 393e 8a55 b53d 354a 223e 7c43 8c3e
000000a0: edb2 933c 0427 133d d019 bbbc 3707 163e
000000b0: 5898 18bc 8855 473d cea7 7e3e b6a6 d6bd
000000c0: 02e8 813e c883 28be 637c 7dbc e032 64be
000000d0: e39a 6a3d 063d 323d 96f7 22be e384 773e
000000e0: 834e 92be d9b6 8d3e 7176 06bd 2fd7 8a3e
000000f0: ad51 3bbd e6f0 e23d 35af 063e bf32 223e
0.18303013 -0.16688778 0.077613056 -0.14231972 -0.22133245 0.07770353 -0.061470706 -0.07124934
-0.2118696 0.17477354 0.1057714 -0.1749768 -0.08032234 -0.021687603 0.29919696 -0.11548655
0.05476357 0.25622523 0.22669831 0.1781698 -0.29677516 0.25947636 0.07385949 -0.14700179
0.27017778 -0.16480152 -0.17322056 0.07743707 0.16593637 -0.21012814 -0.118401036 0.11597024
0.24856023 -0.051360488 -0.3014517 -0.23319629 0.18132016 0.08854206 0.1584862 0.27395236
0.018029654 0.03592588 -0.022839457 0.1465119 -0.009313665 0.048665553 0.248687 -0.10481016
0.2537232 -0.1645652 -0.015471551 -0.22285032 0.057276618 0.043515228 -0.15914759 0.24171786
-0.28575525 0.27678564 -0.0328278 0.27117297 -0.04573219 0.11081104 0.13152774 0.1583967

conv2.bias f4 [32]
00000000: 0000 0000 0000 0000 0000 0000 0000 0000
00000010: 0000 0000 0000 0000 0000 0000 0000 0000
00000020: 0000 0000 0000 0000 0000 0000 0000 0000
00000030: 0000 0000 0000 0000 0000 0000 0000 0000
00000040: 0000 0000 0000 0000 0000 0000 0000 0000
00000050: 0000 0000 0000 0000 0000 0000 0000 0000
00000060: 0000 0000 0000 0000 0000 0000 0000 0000
00000070: 0000 0000 0000 0000 0000 0000 0000 0000
0.0 0.0 0.0 0.0 0.0 0.0 0.0 0.0
0.0 0.0 0.0 0.0 0.0 0.0 0.0 0.0
0.0 0.0 0.0 0.0 0.0 0.0 0.0 0.0
0.0 0.0 0.0 0.0 0.0 0.0 0.0 0.0

conv2.lin.weight f4 [32, 64]
00000000: a247 723e 10a2 e43c f0c0 febc dc5b 88bd
00000010: 540a 683e 4802 cebd 78d2 3bbe 007e 213a
00000020: 2a33 2bbe 5271 49be e021 b53c 70d1 1f3e
00000030: 40b4 383d f22c 003e 3cc4 7d3e 3046 8dbd
00000040: a088 db3d f2f5 15be c048 71bc bc90 243e
00000050: 3624 66be b80e 463d 1030 8c3d 14f9 c83d
00000060: 8c8c 29be 9c04 023e c087 8abb 3405 26be
00000070: c020 293e 24de 673e 08dc 0c3d 1cb4 ca3d
00000080: a82e e63d 047c 42be bc7d 6dbe 00c9 d83b
00000090: cea3 47be fe2e 56be 008b e03c 24c9 9fbd
000000a0: 98ce 9abd dc83 3ebe 6e86 71be 940f 5f3e
000000b0: dcb2 27be 5ca4 cfbd 16ae 68be f45d c8bd
000000c0: 50d2 7b3d 24b5 4cbe 4854 6cbd de0d 1fbe
000000d0: 2230 3e3e c4f6 823d c087 dcbb 4cb6 7b3e
000000e0: 7630 7abe 5cd2 da3d b225 3abe 40d4 623d
000000f0: dcac 9bbd 0018 c9bd e44e 053e e286 00be
00000100: e0e5 5fbd 20da 31bc 842a c5bd f4a7 c23d
00000110: 4ada 4b3e 6831 2abd 7e2e 61be 38c7 1ebe
00000120: 4468 11be 0047 05bb 2c35 9ebd 744b b13d
00000130: c04d 70bc 4213 5fbe 30f8 b3bc d078 663e
00000140: c811 903d c2fe 67be b41f 613e 6074 0fbc
00000150: 6473 43be e03a 01be 0000 123a 488f a93d
00000160: acc3 e63d 40ac e0bb 409e eb3d be13 0d3e
00000170: 803d 05bb b0a2 75bd 60f1 103d e4fa 8bbd
00000180: 5ca2 37be 7cef 663e 865d 26be 1246 3fbe
00000190: 4494 793e e040 133e 18a2 1f3d d677 4b3e
000001a0: 2011 153c 4085 01bd 1cd2 c63d ac69 a53d
000001b0: e80f ebbd d4b9 123e 00b9 b9bb 8c3f 1a3e
000001c0: 1c6a 41be 44ec 9cbd 9c47 fa3d 0cdd a9bd
000001d0: c076 3bbd 802f 613e d6c4 123e f038 6e3d
000001e0: a078 733d 04a7 02be 82d4 673e b892 5e3d
000001f0: fe5f 523e 10e6 9d3d f4b5 c93d 5abd 3dbe
00000200: 301a adbc 2075 7e3e 9c42 b63d 841a 3abe
00000210: 7667 6ebe fe39 5e3e ec89 2cbe 9864 0dbe
00000220: c092 ccbc 74a6 a33d 80e0 903d e62a 28be
00000230: 2c23 bd3d 04b4 9dbd 26f9 4bbe b817 5b3d
00000240: 32a3 6b3e 3c25 253e 4c20 583e 9c64 ed3d
00000250: 5442 f6bd 5c0a b13d b0be ac3d 109d 313d
00000260: f867 973d 183d 0f3d e0f4 71bd bec4 68be
00000270: f457 87bd 2e01 1d3e 700a fabd c083 75bc
00000280: 28f9 75be 98e7 2abe a0ee 7abc a866 763d
00000290: 303b 7cbd 9cb2 8c3d 1c1f 403e 8096 d13b
000002a0: e463 a5bd bebf 0fbe e0ef 19be 18df 1e3e
000002b0: dcb9 043e d08b 4d3d 46b9 703e 3a28 3c3e
000002c0: 40d7 f7bb 8c6c e1bd 7c75 993d b009 c8bd
000002d0: e09c 0abd 5cb8 3b3e 403f f5bc aca0 523e
000002e0: 44cb 7d3e 3a4f 7e3e 9823 7cbd d2be 40be
000002f0: 3848 03bd ec40 e23d 3639 023e 34de 033e
00000300: 28cb 283e a029 233c 0014 58bb 062d 4e3e
00000310: 209c abbc 2865 293d 560c 4e3e 341c 793e
00000320: 409f 32bd b282 603e 8894 46be 181e 713d
00000330: 86ea 323e c429 323e ba2a 67be ce9d 3c3e
00000340: 341b 20be d416 d23d c0c8 24be 38f9 ab3d
00000350: 0c85 d7bd 60b5 acbc fe33 5f3e 4025 b9bd
00000360: 2096 6a3e 6ee2 423e c0c2 5c3e c097 c1bb
00000370: 36a1 51be 80cc 37bd 9813 a43d e0a9 a4bd
00000380: 3887 74bd a0c2 d63c bc9b 67be 386f debd
00000390: e091 19be 8ade 123e da1d 7a3e e677 10be
000003a0: 8486 6f3e 329d 183e 0020 133e 286b 143d
000003b0: d20f 53be 609d 57be acc8 cebd f88a 8f3d
000003c0: 5c95 b93d 746e f1bd 9ece 223e 7e0f 103e
000003d0: 682b cabd 08fa 52be 4006 bfbd 40cb 8a3b
000003e0: e6a1 6bbe 681f 5a3e 7acc 57be 8c47 f63d
000003f0: 6063 c93c 20d5 ef3c 781d 56bd 300b ef3c
0.23660138 0.027909309 -0.03109786 -0.06658146 0.2266019 -0.10059029 -0.18342006 0.0006160438
-0.16718736 -0.19672135 0.02211088 0.15607238 0.045093775 0.12517145 0.24781889 -0.06898153
0.107194185 -0.14644602 -0.014726818 0.16070837 -0.22474751 0.04835388 0.06845105 0.09813133
-0.1655752 0.12697071 -0.0042276084 -0.16212922 0.165164 0.22643334 0.034389526 0.098976344
0.11239368 -0.1899262 -0.23192495 0.006615758 -0.1949608 -0.20916364 0.02741003 -0.078020364
-0.07558936 -0.18604988 -0.23586437 0.21783286 -0.16376823 -0.10138771 -0.22722659 -0.09783545
0.061479867 -0.19990975 -0.057697564 -0.15532634 0.18573049 0.06394723 -0.00673005 0.2458126
-0.24432549 0.10684654 -0.18178442 0.0553782 -0.0760133 -0.09819031 0.13018376 -0.12551454
-0.054662585 -0.010855228 -0.0962725 0.09504691 0.1990749 -0.041551024 -0.21990392 -0.15505683
-0.1419993 -0.0020336509 -0.077249855 0.0865697 -0.014666975 -0.2178469 -0.021968931 0.22507024
0.070346415 -0.22655776 0.2198475 -0.008755773 -0.19086987 -0.12620115 0.0005569458 0.08279282
0.1126779 -0.0068564713 0.11504793 0.13777062 -0.0020330846 -0.059969604 0.035386443 -0.06834963
-0.17933029 0.22552294 -0.16246614 -0.18679073 0.24372965 0.14380217 0.038972944 0.19869933
0.009098321 -0.031621218 0.09708044 0.08076796 -0.11477643 0.143287 -0.0056678057 0.15063304
-0.18888134 -0.076622516 0.1222069 -0.082941145 -0.045767546 0.21990776 0.143329 0.05815977
0.05944121 -0.12759024 0.22639659 0.05433914 0.2054443 0.077098966 0.09849158 -0.18529263
-0.021130651 0.24849367 0.088994235 -0.18174177 -0.23281655 0.2170181 -0.16849488 -0.13807905
-0.02497232 0.07990733 0.0707407 -0.16422614 0.09235224 -0.07700351 -0.19919261 0.053489417
0.23011473 0.16127485 0.2110607 0.11591455 -0.1202437 0.08644554 0.08434808 0.043362677
0.07392877 0.034970373 -0.05907142 -0.22731301 -0.066085726 0.15332481 -0.12209022 -0.014985025
-0.24020827 -0.16689909 -0.015315682 0.060156494 -0.061579883 0.068700045 0.18761867 0.006396115
-0.08075693 -0.14037988 -0.15032911 0.15514791 0.12961525 0.050182164 0.23508176 0.1837472
-0.0075635016 -0.11007032 0.074931115 -0.09767473 -0.033841014 0.18332046 -0.029937387 0.20569104
0.24784571 0.2483491 -0.061557382 -0.18822792 -0.032051295 0.11047539 0.12717137 0.12877733
0.16483748 0.009958655 -0.0032970905 0.20134363 -0.02094847 0.041356236 0.20121893 0.24327165
-0.043608904 0.21924856 -0.19392598 0.05886659 0.17472276 0.17398745 -0.22574893 0.18419573
-0.15635377 0.1025826 -0.16092205 0.08397144 -0.105234236 -0.02108258 0.21797177 -0.09040308
0.2290883 0.19031689 0.21558666 -0.0059079826 -0.20471653 -0.04487276 0.0801155 -0.080402136
-0.059699267 0.026215851 -0.22618002 -0.10861057 -0.14997053 0.14342704 0.2442545 -0.14108238
0.23391157 0.14903715 0.14367676 0.036235005 -0.20611504 -0.21056128 -0.10096869 0.07008928
0.09061691 -0.117886454 0.1589913 0.1406841 -0.0987156 -0.20603192 -0.09327364 0.004235655
-0.23010978 0.21301043 -0.21074095 0.12025365 0.024583519 0.02927643 -0.052274197 0.02918014

fc.weight f4 [16, 32]
00000000: 90b1 bd3d ebc2 f03d 11a9 a23d e055 debd
00000010: e831 9cbd 8311 0ebe b049 0fbe a108 dd3d
00000020: 627a 333b 3a53 ea3d 33e5 e83d eb50 d5bd
00000030: 9bc9 88bd 9177 a23d c7ff 73bd 8352 bdbc
00000040: 3748 bb3d 29b5 9ebc 2a55 a8bc 1dc6 193e
00000050: 6bcc 1cbd d3d3 ebbd a264 80bd 006e ce3d
00000060: 5a9f 8fbd 8281 13be 5b80 b6bc 6323 333d
00000070: c12b 52bb 1556 2fbe 236c 223e ff9b 2e3e
00000080: cbe0 20be b8e1 173e ccf9 12be 1738 c03d
00000090: 84d5 c7bd ca32 c43d ae05 2bbe 650e e83d
000000a0: 5a5f 1fbd ecbd c6bd 76cc cfbd b4c0 14be
000000b0: 208e ec3d 19c7 293e 9713 003e a53f 06be
000000c0: 66c0 c83d 0475 b73c d4f4 1fbe 81ad 01be
000000d0: 73fb 243e 1350 cf3b ada7 c53c ec73 0e3e
000000e0: e386 f7bd ae5b 21be f0f5 9ebd 4272 99bb
000000f0: e2d1 223e 35f6 4a39 3abe 02be e24f e33d
00000100: e743 d7bd bdb3 14be d57c f93d ec7b 353c
00000110: ed4f b53d 1198 323d b624 c4bd e94d a3bd
00000120: e82b ddbd e9ee eebd a8d9 a23d 6730 6abc
00000130: 28f5 fabd 55cc 20be 2f07 033e 6802 94bc
00000140: a435 4c3d d354 ba3d 830c 6bbd ef51 57bd
00000150: 0016 30be f96f de3d 28c1 0f3e d3fc 113d
00000160: f722 f73a f87e 18be f1a6 023e bf0c 923d
00000170: 84a9 0cbe b04d 883c b984 17be bdf3 133e
00000180: c125 a03d c9df 513d 62b8 babd 66c1 343d
00000190: 6253 9ebd 419c b23d ab4b 253e 0a4a 003e
000001a0: cd0a 68bc 18b4 7cbd f157 c7bd d74f ebb9
000001b0: fce9 c2bd e2cb 1ebe aef5 41bd b532 1dbd
000001c0: aec7 1dbe ad79 a03d a025 0b3e 6cbe f63d
000001d0: 6c53 bc3c 1316 2fbe c4fb b2bd 144c 1fbe
000001e0: dbd4 0cbe 0c67 dbbd ca4c 803d 9831 133e
000001f0: abef 28bd 25f1 263e 03cc 093e 5229 10be
00000200: a8fb 3f3d 3132 033e d91a b9bd e096 263e
00000210: 3102 9dbd 01bb 00be 0d7c 57bd b53c 0f3e
00000220: b1ac d43d 4683 33be b503 be3d bb6f 013b
00000230: 6f84 e43d 1799 283b e909 1b3e bccc 8e3d
00000240: f03b 8d3d ef67 213e 8cbc acbd ba4c 38bc
00000250: d8f4 55bb 4c43 953d 9e08 ddbd 1170 483d
00000260: 320a 32be 69dd 2a3e 240f 323e 0f2e ff3d
00000270: 1f47 07be 9606 c8bd 50ab 1dbd 611a 0b3e
00000280: 0f1a 20be cd49 963d be22 c5bd e2e1 a33b
00000290: 7e12 89bd 2611 df3d 438a 5b3b 3d8c 1ebe
000002a0: a82a 2fbd eb47 993d 75f9 023e 1704 003e
000002b0: ff6d e63d 18ce 1e3e 849b d9bd b2db 0fbe
000002c0: f6fa b83d 310a edbd 5bf1 d03d c12a 1a3e
000002d0: ee19 343e f33a 12be 3efe 1cbe 26ba 5abd
000002e0: 90f0 253e 4bc9 e13d bf2d 33be 9713 dd3b
000002f0: aee0 bcbd 34d1 853a 47bc 11be 0be6 b53d
00000300: 9f88 27be 1d00 31be 29d2 903d 9e06 a6bd
00000310: 2ac6 07be 7a8a 0c3c be90 a33a 7051 2bbe
00000320: f114 dcbc 7737 a43d 0334 643c fcaf 303e
00000330: 0ae6 ffbc eae3 1f3d 99e4 0abc 7f6f 0f3e
00000340: 491f b6bd 555b c3bd 40eb 203e 1432 163d
00000350: ad8e 1d3e bb6a 863d 63fd 1fbe d4b8 ffbc
00000360: d7fd 343e 009a b43c c76d 8fbd 17b0 353d
00000370: cfdf ea3d 8a39 83bd 68e7 dabc b4f9 e63d
00000380: 93f4 0abe c573 17bd e076 a33d 97bf e6bd
00000390: 35de 9cbd 1374 b1bd 514a d8bd 5df0 283e
000003a0: 20bd 90bd 91c5 603d cef1 23be bab2 14be
000003b0: 8d6c 1d3e b4d5 823b 4ead 70bd b3bb 273e
000003c0: db60 343d 0c08 e7bc bcaf 25bd abbb 20bd
000003d0: a3f1 b43d 5cc4 623d 71e5 babd 5dd9 a7bd
000003e0: 1296 94bd b339 223e a44c 08be 10ca ea3d
000003f0: 00a1 933c 1526 853d a706 e33c a9a5 83bd
0.09262383 0.11755928 0.07942403 -0.10856223 -0.07626706 -0.13873868 -0.13992953 0.107926615
0.0027386178 0.114416555 0.11371841 -0.104158245 -0.06679078 0.07932962 -0.0595701 -0.023110634
0.09144633 -0.019373493 -0.020548422 0.1501698 -0.038280886 -0.11515012 -0.06269194 0.100795746
-0.07012816 -0.14404872 -0.022278002 0.04373492 -0.0032069536 -0.17122681 0.15861563 0.17051695
-0.15710752 0.14832199 -0.14353102 0.09385698 -0.09757522 0.0958 -0.16701385 0.113308705
-0.038909294 -0.097041935 -0.1014642 -0.14526635 0.11550546 0.16579856 0.12507473 -0.13110216
0.09802322 0.022394665 -0.15620738 -0.12663843 0.16111545 0.0063266843 0.024127806 0.13911408
-0.120862745 -0.1575763 -0.077617526 -0.00468281 0.15900376 0.0001935594 -0.12767878 0.11099221
-0.10510998 -0.1452169 0.12182013 0.011076909 0.08853135 0.043602053 -0.095773146 -0.079738446
-0.1079939 -0.11666662 0.07951671 -0.014293767 -0.12253791 -0.15702946 0.12795709 -0.018067554
0.049855843 0.0909821 -0.05738498 -0.052568372 -0.17195892 0.10861201 0.14038527 0.035641503
0.0018855025 -0.14892185 0.12758996 0.071313374 -0.1373654 0.016638607 -0.14796723 0.14448448
0.07819701 0.05123881 -0.091171995 0.04412975 -0.07730748 0.08721209 0.16142146 0.12528244
-0.014162731 -0.06169519 -0.0973357 -0.00044882178 -0.09517285 -0.15507463 -0.04735344 -0.038378436
-0.15408203 0.07835708 0.13588572 0.12048039 0.022988997 -0.17098264 -0.08739427 -0.15556365
-0.13753073 -0.10713014 0.06264646 0.14374387 -0.04124419 0.16302927 0.1345673 -0.14078262
0.046870857 0.12812115 -0.09038324 0.16268492 -0.076664336 -0.12571336 -0.05260854 0.13988002
0.10384501 -0.17530546 0.09278051 0.0019750434 0.11158072 0.0025726014 0.15140499 0.06972644
0.06896198 0.15762304 -0.084344 -0.011248762 -0.003264716 0.072882265 -0.10792659 0.048935
-0.17386702 0.16686024 0.17388588 0.12459957 -0.13210724 -0.09766881 -0.038493454 0.13584282
-0.1563494 0.07338295 -0.09625767 0.0050012926 -0.0669298 0.10891943 0.0033499158 -0.15483184
-0.04276529 0.074844204 0.12790473 0.1250156 0.11251449 0.15508306 -0.106253654 -0.14048651
0.09032242 -0.115742095 0.10202285 0.15055372 0.17588016 -0.142803 -0.1533136 -0.05340018
0.16205049 0.11024722 -0.1749792 0.00674672 -0.09222542 0.0010209442 -0.14231978 0.08881768
-0.1636071 -0.172852 0.07071335 -0.08106731 -0.13259187 0.008577937 0.001247905 -0.16730285
-0.026865454 0.080183916 0.013928416 0.17254633 -0.03123762 0.039035715 -0.0084773535 0.14007376
-0.08892686 -0.095389046 0.15714741 0.036668852 0.15386458 0.06563326 -0.15624003 -0.031216063
0.17674957 0.02204609 -0.0700336 0.044357385 0.11468469 -0.06407459 -0.026721671 0.11278096
-0.1356986 -0.03697564 0.07981658 -0.112670116 -0.0765957 -0.086647175 -0.1056105 0.16497941
-0.07067323 0.054875914 -0.1601021 -0.14521304 0.1537344 0.0039927606 -0.058759026 0.16380195
0.04403768 -0.02820208 -0.040450796 -0.039241474 0.08835151 0.055363044 -0.09125794 -0.08195756
-0.07255186 0.15842323 -0.13310486 0.114643216 0.018021107 0.06501404 0.027713133 -0.064280815

fc.bias f4 [16]
00000000: ad4f 86bd f88f 0e3e 4d4b 083e 2a23 c4bc
00000010: daed 07be fb3a eb3c 8062 97bd 0d32 5f3d
00000020: 89c2 2f3e 90ce f43c 600a cc3d 5f63 21be
00000030: 2da7 00bd ab0c a53d 011c bcbd da45 4ebd
-0.06558166 0.13922107 0.13309975 -0.023942549 -0.13274327 0.028714648 -0.07391834 0.05449109
0.17164053 0.029883653 0.099629164 -0.15760563 -0.03140943 0.08059057 -0.09185029 -0.050359584
